Model created
Model: "resnext"
__________________________________________________________________________________________________
Layer (type)                    Output Shape         Param #     Connected to                     
==================================================================================================
input_1 (InputLayer)            (None, 32, 32, 3)    0                                            
__________________________________________________________________________________________________
conv2d_1 (Conv2D)               (None, 32, 32, 64)   1728        input_1[0][0]                    
__________________________________________________________________________________________________
batch_normalization_1 (BatchNor (None, 32, 32, 64)   256         conv2d_1[0][0]                   
__________________________________________________________________________________________________
activation_1 (Activation)       (None, 32, 32, 64)   0           batch_normalization_1[0][0]      
__________________________________________________________________________________________________
conv2d_3 (Conv2D)               (None, 32, 32, 128)  8192        activation_1[0][0]               
__________________________________________________________________________________________________
batch_normalization_3 (BatchNor (None, 32, 32, 128)  512         conv2d_3[0][0]                   
__________________________________________________________________________________________________
activation_2 (Activation)       (None, 32, 32, 128)  0           batch_normalization_3[0][0]      
__________________________________________________________________________________________________
lambda_1 (Lambda)               (None, 32, 32, 16)   0           activation_2[0][0]               
__________________________________________________________________________________________________
lambda_2 (Lambda)               (None, 32, 32, 16)   0           activation_2[0][0]               
__________________________________________________________________________________________________
lambda_3 (Lambda)               (None, 32, 32, 16)   0           activation_2[0][0]               
__________________________________________________________________________________________________
lambda_4 (Lambda)               (None, 32, 32, 16)   0           activation_2[0][0]               
__________________________________________________________________________________________________
lambda_5 (Lambda)               (None, 32, 32, 16)   0           activation_2[0][0]               
__________________________________________________________________________________________________
lambda_6 (Lambda)               (None, 32, 32, 16)   0           activation_2[0][0]               
__________________________________________________________________________________________________
lambda_7 (Lambda)               (None, 32, 32, 16)   0           activation_2[0][0]               
__________________________________________________________________________________________________
lambda_8 (Lambda)               (None, 32, 32, 16)   0           activation_2[0][0]               
__________________________________________________________________________________________________
conv2d_4 (Conv2D)               (None, 32, 32, 16)   2304        lambda_1[0][0]                   
__________________________________________________________________________________________________
conv2d_5 (Conv2D)               (None, 32, 32, 16)   2304        lambda_2[0][0]                   
__________________________________________________________________________________________________
conv2d_6 (Conv2D)               (None, 32, 32, 16)   2304        lambda_3[0][0]                   
__________________________________________________________________________________________________
conv2d_7 (Conv2D)               (None, 32, 32, 16)   2304        lambda_4[0][0]                   
__________________________________________________________________________________________________
conv2d_8 (Conv2D)               (None, 32, 32, 16)   2304        lambda_5[0][0]                   
__________________________________________________________________________________________________
conv2d_9 (Conv2D)               (None, 32, 32, 16)   2304        lambda_6[0][0]                   
__________________________________________________________________________________________________
conv2d_10 (Conv2D)              (None, 32, 32, 16)   2304        lambda_7[0][0]                   
__________________________________________________________________________________________________
conv2d_11 (Conv2D)              (None, 32, 32, 16)   2304        lambda_8[0][0]                   
__________________________________________________________________________________________________
concatenate_1 (Concatenate)     (None, 32, 32, 128)  0           conv2d_4[0][0]                   
                                                                 conv2d_5[0][0]                   
                                                                 conv2d_6[0][0]                   
                                                                 conv2d_7[0][0]                   
                                                                 conv2d_8[0][0]                   
                                                                 conv2d_9[0][0]                   
                                                                 conv2d_10[0][0]                  
                                                                 conv2d_11[0][0]                  
__________________________________________________________________________________________________
batch_normalization_4 (BatchNor (None, 32, 32, 128)  512         concatenate_1[0][0]              
__________________________________________________________________________________________________
activation_3 (Activation)       (None, 32, 32, 128)  0           batch_normalization_4[0][0]      
__________________________________________________________________________________________________
conv2d_2 (Conv2D)               (None, 32, 32, 256)  16384       activation_1[0][0]               
__________________________________________________________________________________________________
conv2d_12 (Conv2D)              (None, 32, 32, 256)  32768       activation_3[0][0]               
__________________________________________________________________________________________________
batch_normalization_2 (BatchNor (None, 32, 32, 256)  1024        conv2d_2[0][0]                   
__________________________________________________________________________________________________
batch_normalization_5 (BatchNor (None, 32, 32, 256)  1024        conv2d_12[0][0]                  
__________________________________________________________________________________________________
add_1 (Add)                     (None, 32, 32, 256)  0           batch_normalization_2[0][0]      
                                                                 batch_normalization_5[0][0]      
__________________________________________________________________________________________________
activation_4 (Activation)       (None, 32, 32, 256)  0           add_1[0][0]                      
__________________________________________________________________________________________________
conv2d_13 (Conv2D)              (None, 32, 32, 128)  32768       activation_4[0][0]               
__________________________________________________________________________________________________
batch_normalization_6 (BatchNor (None, 32, 32, 128)  512         conv2d_13[0][0]                  
__________________________________________________________________________________________________
activation_5 (Activation)       (None, 32, 32, 128)  0           batch_normalization_6[0][0]      
__________________________________________________________________________________________________
lambda_9 (Lambda)               (None, 32, 32, 16)   0           activation_5[0][0]               
__________________________________________________________________________________________________
lambda_10 (Lambda)              (None, 32, 32, 16)   0           activation_5[0][0]               
__________________________________________________________________________________________________
lambda_11 (Lambda)              (None, 32, 32, 16)   0           activation_5[0][0]               
__________________________________________________________________________________________________
lambda_12 (Lambda)              (None, 32, 32, 16)   0           activation_5[0][0]               
__________________________________________________________________________________________________
lambda_13 (Lambda)              (None, 32, 32, 16)   0           activation_5[0][0]               
__________________________________________________________________________________________________
lambda_14 (Lambda)              (None, 32, 32, 16)   0           activation_5[0][0]               
__________________________________________________________________________________________________
lambda_15 (Lambda)              (None, 32, 32, 16)   0           activation_5[0][0]               
__________________________________________________________________________________________________
lambda_16 (Lambda)              (None, 32, 32, 16)   0           activation_5[0][0]               
__________________________________________________________________________________________________
conv2d_14 (Conv2D)              (None, 32, 32, 16)   2304        lambda_9[0][0]                   
__________________________________________________________________________________________________
conv2d_15 (Conv2D)              (None, 32, 32, 16)   2304        lambda_10[0][0]                  
__________________________________________________________________________________________________
conv2d_16 (Conv2D)              (None, 32, 32, 16)   2304        lambda_11[0][0]                  
__________________________________________________________________________________________________
conv2d_17 (Conv2D)              (None, 32, 32, 16)   2304        lambda_12[0][0]                  
__________________________________________________________________________________________________
conv2d_18 (Conv2D)              (None, 32, 32, 16)   2304        lambda_13[0][0]                  
__________________________________________________________________________________________________
conv2d_19 (Conv2D)              (None, 32, 32, 16)   2304        lambda_14[0][0]                  
__________________________________________________________________________________________________
conv2d_20 (Conv2D)              (None, 32, 32, 16)   2304        lambda_15[0][0]                  
__________________________________________________________________________________________________
conv2d_21 (Conv2D)              (None, 32, 32, 16)   2304        lambda_16[0][0]                  
__________________________________________________________________________________________________
concatenate_2 (Concatenate)     (None, 32, 32, 128)  0           conv2d_14[0][0]                  
                                                                 conv2d_15[0][0]                  
                                                                 conv2d_16[0][0]                  
                                                                 conv2d_17[0][0]                  
                                                                 conv2d_18[0][0]                  
                                                                 conv2d_19[0][0]                  
                                                                 conv2d_20[0][0]                  
                                                                 conv2d_21[0][0]                  
__________________________________________________________________________________________________
batch_normalization_7 (BatchNor (None, 32, 32, 128)  512         concatenate_2[0][0]              
__________________________________________________________________________________________________
activation_6 (Activation)       (None, 32, 32, 128)  0           batch_normalization_7[0][0]      
__________________________________________________________________________________________________
conv2d_22 (Conv2D)              (None, 32, 32, 256)  32768       activation_6[0][0]               
__________________________________________________________________________________________________
batch_normalization_8 (BatchNor (None, 32, 32, 256)  1024        conv2d_22[0][0]                  
__________________________________________________________________________________________________
add_2 (Add)                     (None, 32, 32, 256)  0           activation_4[0][0]               
                                                                 batch_normalization_8[0][0]      
__________________________________________________________________________________________________
activation_7 (Activation)       (None, 32, 32, 256)  0           add_2[0][0]                      
__________________________________________________________________________________________________
conv2d_23 (Conv2D)              (None, 32, 32, 128)  32768       activation_7[0][0]               
__________________________________________________________________________________________________
batch_normalization_9 (BatchNor (None, 32, 32, 128)  512         conv2d_23[0][0]                  
__________________________________________________________________________________________________
activation_8 (Activation)       (None, 32, 32, 128)  0           batch_normalization_9[0][0]      
__________________________________________________________________________________________________
lambda_17 (Lambda)              (None, 32, 32, 16)   0           activation_8[0][0]               
__________________________________________________________________________________________________
lambda_18 (Lambda)              (None, 32, 32, 16)   0           activation_8[0][0]               
__________________________________________________________________________________________________
lambda_19 (Lambda)              (None, 32, 32, 16)   0           activation_8[0][0]               
__________________________________________________________________________________________________
lambda_20 (Lambda)              (None, 32, 32, 16)   0           activation_8[0][0]               
__________________________________________________________________________________________________
lambda_21 (Lambda)              (None, 32, 32, 16)   0           activation_8[0][0]               
__________________________________________________________________________________________________
lambda_22 (Lambda)              (None, 32, 32, 16)   0           activation_8[0][0]               
__________________________________________________________________________________________________
lambda_23 (Lambda)              (None, 32, 32, 16)   0           activation_8[0][0]               
__________________________________________________________________________________________________
lambda_24 (Lambda)              (None, 32, 32, 16)   0           activation_8[0][0]               
__________________________________________________________________________________________________
conv2d_24 (Conv2D)              (None, 32, 32, 16)   2304        lambda_17[0][0]                  
__________________________________________________________________________________________________
conv2d_25 (Conv2D)              (None, 32, 32, 16)   2304        lambda_18[0][0]                  
__________________________________________________________________________________________________
conv2d_26 (Conv2D)              (None, 32, 32, 16)   2304        lambda_19[0][0]                  
__________________________________________________________________________________________________
conv2d_27 (Conv2D)              (None, 32, 32, 16)   2304        lambda_20[0][0]                  
__________________________________________________________________________________________________
conv2d_28 (Conv2D)              (None, 32, 32, 16)   2304        lambda_21[0][0]                  
__________________________________________________________________________________________________
conv2d_29 (Conv2D)              (None, 32, 32, 16)   2304        lambda_22[0][0]                  
__________________________________________________________________________________________________
conv2d_30 (Conv2D)              (None, 32, 32, 16)   2304        lambda_23[0][0]                  
__________________________________________________________________________________________________
conv2d_31 (Conv2D)              (None, 32, 32, 16)   2304        lambda_24[0][0]                  
__________________________________________________________________________________________________
concatenate_3 (Concatenate)     (None, 32, 32, 128)  0           conv2d_24[0][0]                  
                                                                 conv2d_25[0][0]                  
                                                                 conv2d_26[0][0]                  
                                                                 conv2d_27[0][0]                  
                                                                 conv2d_28[0][0]                  
                                                                 conv2d_29[0][0]                  
                                                                 conv2d_30[0][0]                  
                                                                 conv2d_31[0][0]                  
__________________________________________________________________________________________________
batch_normalization_10 (BatchNo (None, 32, 32, 128)  512         concatenate_3[0][0]              
__________________________________________________________________________________________________
activation_9 (Activation)       (None, 32, 32, 128)  0           batch_normalization_10[0][0]     
__________________________________________________________________________________________________
conv2d_32 (Conv2D)              (None, 32, 32, 256)  32768       activation_9[0][0]               
__________________________________________________________________________________________________
batch_normalization_11 (BatchNo (None, 32, 32, 256)  1024        conv2d_32[0][0]                  
__________________________________________________________________________________________________
add_3 (Add)                     (None, 32, 32, 256)  0           activation_7[0][0]               
                                                                 batch_normalization_11[0][0]     
__________________________________________________________________________________________________
activation_10 (Activation)      (None, 32, 32, 256)  0           add_3[0][0]                      
__________________________________________________________________________________________________
conv2d_34 (Conv2D)              (None, 32, 32, 256)  65536       activation_10[0][0]              
__________________________________________________________________________________________________
batch_normalization_13 (BatchNo (None, 32, 32, 256)  1024        conv2d_34[0][0]                  
__________________________________________________________________________________________________
activation_11 (Activation)      (None, 32, 32, 256)  0           batch_normalization_13[0][0]     
__________________________________________________________________________________________________
lambda_25 (Lambda)              (None, 32, 32, 32)   0           activation_11[0][0]              
__________________________________________________________________________________________________
lambda_26 (Lambda)              (None, 32, 32, 32)   0           activation_11[0][0]              
__________________________________________________________________________________________________
lambda_27 (Lambda)              (None, 32, 32, 32)   0           activation_11[0][0]              
__________________________________________________________________________________________________
lambda_28 (Lambda)              (None, 32, 32, 32)   0           activation_11[0][0]              
__________________________________________________________________________________________________
lambda_29 (Lambda)              (None, 32, 32, 32)   0           activation_11[0][0]              
__________________________________________________________________________________________________
lambda_30 (Lambda)              (None, 32, 32, 32)   0           activation_11[0][0]              
__________________________________________________________________________________________________
lambda_31 (Lambda)              (None, 32, 32, 32)   0           activation_11[0][0]              
__________________________________________________________________________________________________
lambda_32 (Lambda)              (None, 32, 32, 32)   0           activation_11[0][0]              
__________________________________________________________________________________________________
conv2d_35 (Conv2D)              (None, 16, 16, 32)   9216        lambda_25[0][0]                  
__________________________________________________________________________________________________
conv2d_36 (Conv2D)              (None, 16, 16, 32)   9216        lambda_26[0][0]                  
__________________________________________________________________________________________________
conv2d_37 (Conv2D)              (None, 16, 16, 32)   9216        lambda_27[0][0]                  
__________________________________________________________________________________________________
conv2d_38 (Conv2D)              (None, 16, 16, 32)   9216        lambda_28[0][0]                  
__________________________________________________________________________________________________
conv2d_39 (Conv2D)              (None, 16, 16, 32)   9216        lambda_29[0][0]                  
__________________________________________________________________________________________________
conv2d_40 (Conv2D)              (None, 16, 16, 32)   9216        lambda_30[0][0]                  
__________________________________________________________________________________________________
conv2d_41 (Conv2D)              (None, 16, 16, 32)   9216        lambda_31[0][0]                  
__________________________________________________________________________________________________
conv2d_42 (Conv2D)              (None, 16, 16, 32)   9216        lambda_32[0][0]                  
__________________________________________________________________________________________________
concatenate_4 (Concatenate)     (None, 16, 16, 256)  0           conv2d_35[0][0]                  
                                                                 conv2d_36[0][0]                  
                                                                 conv2d_37[0][0]                  
                                                                 conv2d_38[0][0]                  
                                                                 conv2d_39[0][0]                  
                                                                 conv2d_40[0][0]                  
                                                                 conv2d_41[0][0]                  
                                                                 conv2d_42[0][0]                  
__________________________________________________________________________________________________
batch_normalization_14 (BatchNo (None, 16, 16, 256)  1024        concatenate_4[0][0]              
__________________________________________________________________________________________________
activation_12 (Activation)      (None, 16, 16, 256)  0           batch_normalization_14[0][0]     
__________________________________________________________________________________________________
conv2d_33 (Conv2D)              (None, 16, 16, 512)  131072      activation_10[0][0]              
__________________________________________________________________________________________________
conv2d_43 (Conv2D)              (None, 16, 16, 512)  131072      activation_12[0][0]              
__________________________________________________________________________________________________
batch_normalization_12 (BatchNo (None, 16, 16, 512)  2048        conv2d_33[0][0]                  
__________________________________________________________________________________________________
batch_normalization_15 (BatchNo (None, 16, 16, 512)  2048        conv2d_43[0][0]                  
__________________________________________________________________________________________________
add_4 (Add)                     (None, 16, 16, 512)  0           batch_normalization_12[0][0]     
                                                                 batch_normalization_15[0][0]     
__________________________________________________________________________________________________
activation_13 (Activation)      (None, 16, 16, 512)  0           add_4[0][0]                      
__________________________________________________________________________________________________
conv2d_44 (Conv2D)              (None, 16, 16, 256)  131072      activation_13[0][0]              
__________________________________________________________________________________________________
batch_normalization_16 (BatchNo (None, 16, 16, 256)  1024        conv2d_44[0][0]                  
__________________________________________________________________________________________________
activation_14 (Activation)      (None, 16, 16, 256)  0           batch_normalization_16[0][0]     
__________________________________________________________________________________________________
lambda_33 (Lambda)              (None, 16, 16, 32)   0           activation_14[0][0]              
__________________________________________________________________________________________________
lambda_34 (Lambda)              (None, 16, 16, 32)   0           activation_14[0][0]              
__________________________________________________________________________________________________
lambda_35 (Lambda)              (None, 16, 16, 32)   0           activation_14[0][0]              
__________________________________________________________________________________________________
lambda_36 (Lambda)              (None, 16, 16, 32)   0           activation_14[0][0]              
__________________________________________________________________________________________________
lambda_37 (Lambda)              (None, 16, 16, 32)   0           activation_14[0][0]              
__________________________________________________________________________________________________
lambda_38 (Lambda)              (None, 16, 16, 32)   0           activation_14[0][0]              
__________________________________________________________________________________________________
lambda_39 (Lambda)              (None, 16, 16, 32)   0           activation_14[0][0]              
__________________________________________________________________________________________________
lambda_40 (Lambda)              (None, 16, 16, 32)   0           activation_14[0][0]              
__________________________________________________________________________________________________
conv2d_45 (Conv2D)              (None, 16, 16, 32)   9216        lambda_33[0][0]                  
__________________________________________________________________________________________________
conv2d_46 (Conv2D)              (None, 16, 16, 32)   9216        lambda_34[0][0]                  
__________________________________________________________________________________________________
conv2d_47 (Conv2D)              (None, 16, 16, 32)   9216        lambda_35[0][0]                  
__________________________________________________________________________________________________
conv2d_48 (Conv2D)              (None, 16, 16, 32)   9216        lambda_36[0][0]                  
__________________________________________________________________________________________________
conv2d_49 (Conv2D)              (None, 16, 16, 32)   9216        lambda_37[0][0]                  
__________________________________________________________________________________________________
conv2d_50 (Conv2D)              (None, 16, 16, 32)   9216        lambda_38[0][0]                  
__________________________________________________________________________________________________
conv2d_51 (Conv2D)              (None, 16, 16, 32)   9216        lambda_39[0][0]                  
__________________________________________________________________________________________________
conv2d_52 (Conv2D)              (None, 16, 16, 32)   9216        lambda_40[0][0]                  
__________________________________________________________________________________________________
concatenate_5 (Concatenate)     (None, 16, 16, 256)  0           conv2d_45[0][0]                  
                                                                 conv2d_46[0][0]                  
                                                                 conv2d_47[0][0]                  
                                                                 conv2d_48[0][0]                  
                                                                 conv2d_49[0][0]                  
                                                                 conv2d_50[0][0]                  
                                                                 conv2d_51[0][0]                  
                                                                 conv2d_52[0][0]                  
__________________________________________________________________________________________________
batch_normalization_17 (BatchNo (None, 16, 16, 256)  1024        concatenate_5[0][0]              
__________________________________________________________________________________________________
activation_15 (Activation)      (None, 16, 16, 256)  0           batch_normalization_17[0][0]     
__________________________________________________________________________________________________
conv2d_53 (Conv2D)              (None, 16, 16, 512)  131072      activation_15[0][0]              
__________________________________________________________________________________________________
batch_normalization_18 (BatchNo (None, 16, 16, 512)  2048        conv2d_53[0][0]                  
__________________________________________________________________________________________________
add_5 (Add)                     (None, 16, 16, 512)  0           activation_13[0][0]              
                                                                 batch_normalization_18[0][0]     
__________________________________________________________________________________________________
activation_16 (Activation)      (None, 16, 16, 512)  0           add_5[0][0]                      
__________________________________________________________________________________________________
conv2d_54 (Conv2D)              (None, 16, 16, 256)  131072      activation_16[0][0]              
__________________________________________________________________________________________________
batch_normalization_19 (BatchNo (None, 16, 16, 256)  1024        conv2d_54[0][0]                  
__________________________________________________________________________________________________
activation_17 (Activation)      (None, 16, 16, 256)  0           batch_normalization_19[0][0]     
__________________________________________________________________________________________________
lambda_41 (Lambda)              (None, 16, 16, 32)   0           activation_17[0][0]              
__________________________________________________________________________________________________
lambda_42 (Lambda)              (None, 16, 16, 32)   0           activation_17[0][0]              
__________________________________________________________________________________________________
lambda_43 (Lambda)              (None, 16, 16, 32)   0           activation_17[0][0]              
__________________________________________________________________________________________________
lambda_44 (Lambda)              (None, 16, 16, 32)   0           activation_17[0][0]              
__________________________________________________________________________________________________
lambda_45 (Lambda)              (None, 16, 16, 32)   0           activation_17[0][0]              
__________________________________________________________________________________________________
lambda_46 (Lambda)              (None, 16, 16, 32)   0           activation_17[0][0]              
__________________________________________________________________________________________________
lambda_47 (Lambda)              (None, 16, 16, 32)   0           activation_17[0][0]              
__________________________________________________________________________________________________
lambda_48 (Lambda)              (None, 16, 16, 32)   0           activation_17[0][0]              
__________________________________________________________________________________________________
conv2d_55 (Conv2D)              (None, 16, 16, 32)   9216        lambda_41[0][0]                  
__________________________________________________________________________________________________
conv2d_56 (Conv2D)              (None, 16, 16, 32)   9216        lambda_42[0][0]                  
__________________________________________________________________________________________________
conv2d_57 (Conv2D)              (None, 16, 16, 32)   9216        lambda_43[0][0]                  
__________________________________________________________________________________________________
conv2d_58 (Conv2D)              (None, 16, 16, 32)   9216        lambda_44[0][0]                  
__________________________________________________________________________________________________
conv2d_59 (Conv2D)              (None, 16, 16, 32)   9216        lambda_45[0][0]                  
__________________________________________________________________________________________________
conv2d_60 (Conv2D)              (None, 16, 16, 32)   9216        lambda_46[0][0]                  
__________________________________________________________________________________________________
conv2d_61 (Conv2D)              (None, 16, 16, 32)   9216        lambda_47[0][0]                  
__________________________________________________________________________________________________
conv2d_62 (Conv2D)              (None, 16, 16, 32)   9216        lambda_48[0][0]                  
__________________________________________________________________________________________________
concatenate_6 (Concatenate)     (None, 16, 16, 256)  0           conv2d_55[0][0]                  
                                                                 conv2d_56[0][0]                  
                                                                 conv2d_57[0][0]                  
                                                                 conv2d_58[0][0]                  
                                                                 conv2d_59[0][0]                  
                                                                 conv2d_60[0][0]                  
                                                                 conv2d_61[0][0]                  
                                                                 conv2d_62[0][0]                  
__________________________________________________________________________________________________
batch_normalization_20 (BatchNo (None, 16, 16, 256)  1024        concatenate_6[0][0]              
__________________________________________________________________________________________________
activation_18 (Activation)      (None, 16, 16, 256)  0           batch_normalization_20[0][0]     
__________________________________________________________________________________________________
conv2d_63 (Conv2D)              (None, 16, 16, 512)  131072      activation_18[0][0]              
__________________________________________________________________________________________________
batch_normalization_21 (BatchNo (None, 16, 16, 512)  2048        conv2d_63[0][0]                  
__________________________________________________________________________________________________
add_6 (Add)                     (None, 16, 16, 512)  0           activation_16[0][0]              
                                                                 batch_normalization_21[0][0]     
__________________________________________________________________________________________________
activation_19 (Activation)      (None, 16, 16, 512)  0           add_6[0][0]                      
__________________________________________________________________________________________________
conv2d_65 (Conv2D)              (None, 16, 16, 512)  262144      activation_19[0][0]              
__________________________________________________________________________________________________
batch_normalization_23 (BatchNo (None, 16, 16, 512)  2048        conv2d_65[0][0]                  
__________________________________________________________________________________________________
activation_20 (Activation)      (None, 16, 16, 512)  0           batch_normalization_23[0][0]     
__________________________________________________________________________________________________
lambda_49 (Lambda)              (None, 16, 16, 64)   0           activation_20[0][0]              
__________________________________________________________________________________________________
lambda_50 (Lambda)              (None, 16, 16, 64)   0           activation_20[0][0]              
__________________________________________________________________________________________________
lambda_51 (Lambda)              (None, 16, 16, 64)   0           activation_20[0][0]              
__________________________________________________________________________________________________
lambda_52 (Lambda)              (None, 16, 16, 64)   0           activation_20[0][0]              
__________________________________________________________________________________________________
lambda_53 (Lambda)              (None, 16, 16, 64)   0           activation_20[0][0]              
__________________________________________________________________________________________________
lambda_54 (Lambda)              (None, 16, 16, 64)   0           activation_20[0][0]              
__________________________________________________________________________________________________
lambda_55 (Lambda)              (None, 16, 16, 64)   0           activation_20[0][0]              
__________________________________________________________________________________________________
lambda_56 (Lambda)              (None, 16, 16, 64)   0           activation_20[0][0]              
__________________________________________________________________________________________________
conv2d_66 (Conv2D)              (None, 8, 8, 64)     36864       lambda_49[0][0]                  
__________________________________________________________________________________________________
conv2d_67 (Conv2D)              (None, 8, 8, 64)     36864       lambda_50[0][0]                  
__________________________________________________________________________________________________
conv2d_68 (Conv2D)              (None, 8, 8, 64)     36864       lambda_51[0][0]                  
__________________________________________________________________________________________________
conv2d_69 (Conv2D)              (None, 8, 8, 64)     36864       lambda_52[0][0]                  
__________________________________________________________________________________________________
conv2d_70 (Conv2D)              (None, 8, 8, 64)     36864       lambda_53[0][0]                  
__________________________________________________________________________________________________
conv2d_71 (Conv2D)              (None, 8, 8, 64)     36864       lambda_54[0][0]                  
__________________________________________________________________________________________________
conv2d_72 (Conv2D)              (None, 8, 8, 64)     36864       lambda_55[0][0]                  
__________________________________________________________________________________________________
conv2d_73 (Conv2D)              (None, 8, 8, 64)     36864       lambda_56[0][0]                  
__________________________________________________________________________________________________
concatenate_7 (Concatenate)     (None, 8, 8, 512)    0           conv2d_66[0][0]                  
                                                                 conv2d_67[0][0]                  
                                                                 conv2d_68[0][0]                  
                                                                 conv2d_69[0][0]                  
                                                                 conv2d_70[0][0]                  
                                                                 conv2d_71[0][0]                  
                                                                 conv2d_72[0][0]                  
                                                                 conv2d_73[0][0]                  
__________________________________________________________________________________________________
batch_normalization_24 (BatchNo (None, 8, 8, 512)    2048        concatenate_7[0][0]              
__________________________________________________________________________________________________
activation_21 (Activation)      (None, 8, 8, 512)    0           batch_normalization_24[0][0]     
__________________________________________________________________________________________________
conv2d_64 (Conv2D)              (None, 8, 8, 1024)   524288      activation_19[0][0]              
__________________________________________________________________________________________________
conv2d_74 (Conv2D)              (None, 8, 8, 1024)   524288      activation_21[0][0]              
__________________________________________________________________________________________________
batch_normalization_22 (BatchNo (None, 8, 8, 1024)   4096        conv2d_64[0][0]                  
__________________________________________________________________________________________________
batch_normalization_25 (BatchNo (None, 8, 8, 1024)   4096        conv2d_74[0][0]                  
__________________________________________________________________________________________________
add_7 (Add)                     (None, 8, 8, 1024)   0           batch_normalization_22[0][0]     
                                                                 batch_normalization_25[0][0]     
__________________________________________________________________________________________________
activation_22 (Activation)      (None, 8, 8, 1024)   0           add_7[0][0]                      
__________________________________________________________________________________________________
conv2d_75 (Conv2D)              (None, 8, 8, 512)    524288      activation_22[0][0]              
__________________________________________________________________________________________________
batch_normalization_26 (BatchNo (None, 8, 8, 512)    2048        conv2d_75[0][0]                  
__________________________________________________________________________________________________
activation_23 (Activation)      (None, 8, 8, 512)    0           batch_normalization_26[0][0]     
__________________________________________________________________________________________________
lambda_57 (Lambda)              (None, 8, 8, 64)     0           activation_23[0][0]              
__________________________________________________________________________________________________
lambda_58 (Lambda)              (None, 8, 8, 64)     0           activation_23[0][0]              
__________________________________________________________________________________________________
lambda_59 (Lambda)              (None, 8, 8, 64)     0           activation_23[0][0]              
__________________________________________________________________________________________________
lambda_60 (Lambda)              (None, 8, 8, 64)     0           activation_23[0][0]              
__________________________________________________________________________________________________
lambda_61 (Lambda)              (None, 8, 8, 64)     0           activation_23[0][0]              
__________________________________________________________________________________________________
lambda_62 (Lambda)              (None, 8, 8, 64)     0           activation_23[0][0]              
__________________________________________________________________________________________________
lambda_63 (Lambda)              (None, 8, 8, 64)     0           activation_23[0][0]              
__________________________________________________________________________________________________
lambda_64 (Lambda)              (None, 8, 8, 64)     0           activation_23[0][0]              
__________________________________________________________________________________________________
conv2d_76 (Conv2D)              (None, 8, 8, 64)     36864       lambda_57[0][0]                  
__________________________________________________________________________________________________
conv2d_77 (Conv2D)              (None, 8, 8, 64)     36864       lambda_58[0][0]                  
__________________________________________________________________________________________________
conv2d_78 (Conv2D)              (None, 8, 8, 64)     36864       lambda_59[0][0]                  
__________________________________________________________________________________________________
conv2d_79 (Conv2D)              (None, 8, 8, 64)     36864       lambda_60[0][0]                  
__________________________________________________________________________________________________
conv2d_80 (Conv2D)              (None, 8, 8, 64)     36864       lambda_61[0][0]                  
__________________________________________________________________________________________________
conv2d_81 (Conv2D)              (None, 8, 8, 64)     36864       lambda_62[0][0]                  
__________________________________________________________________________________________________
conv2d_82 (Conv2D)              (None, 8, 8, 64)     36864       lambda_63[0][0]                  
__________________________________________________________________________________________________
conv2d_83 (Conv2D)              (None, 8, 8, 64)     36864       lambda_64[0][0]                  
__________________________________________________________________________________________________
concatenate_8 (Concatenate)     (None, 8, 8, 512)    0           conv2d_76[0][0]                  
                                                                 conv2d_77[0][0]                  
                                                                 conv2d_78[0][0]                  
                                                                 conv2d_79[0][0]                  
                                                                 conv2d_80[0][0]                  
                                                                 conv2d_81[0][0]                  
                                                                 conv2d_82[0][0]                  
                                                                 conv2d_83[0][0]                  
__________________________________________________________________________________________________
batch_normalization_27 (BatchNo (None, 8, 8, 512)    2048        concatenate_8[0][0]              
__________________________________________________________________________________________________
activation_24 (Activation)      (None, 8, 8, 512)    0           batch_normalization_27[0][0]     
__________________________________________________________________________________________________
conv2d_84 (Conv2D)              (None, 8, 8, 1024)   524288      activation_24[0][0]              
__________________________________________________________________________________________________
batch_normalization_28 (BatchNo (None, 8, 8, 1024)   4096        conv2d_84[0][0]                  
__________________________________________________________________________________________________
add_8 (Add)                     (None, 8, 8, 1024)   0           activation_22[0][0]              
                                                                 batch_normalization_28[0][0]     
__________________________________________________________________________________________________
activation_25 (Activation)      (None, 8, 8, 1024)   0           add_8[0][0]                      
__________________________________________________________________________________________________
conv2d_85 (Conv2D)              (None, 8, 8, 512)    524288      activation_25[0][0]              
__________________________________________________________________________________________________
batch_normalization_29 (BatchNo (None, 8, 8, 512)    2048        conv2d_85[0][0]                  
__________________________________________________________________________________________________
activation_26 (Activation)      (None, 8, 8, 512)    0           batch_normalization_29[0][0]     
__________________________________________________________________________________________________
lambda_65 (Lambda)              (None, 8, 8, 64)     0           activation_26[0][0]              
__________________________________________________________________________________________________
lambda_66 (Lambda)              (None, 8, 8, 64)     0           activation_26[0][0]              
__________________________________________________________________________________________________
lambda_67 (Lambda)              (None, 8, 8, 64)     0           activation_26[0][0]              
__________________________________________________________________________________________________
lambda_68 (Lambda)              (None, 8, 8, 64)     0           activation_26[0][0]              
__________________________________________________________________________________________________
lambda_69 (Lambda)              (None, 8, 8, 64)     0           activation_26[0][0]              
__________________________________________________________________________________________________
lambda_70 (Lambda)              (None, 8, 8, 64)     0           activation_26[0][0]              
__________________________________________________________________________________________________
lambda_71 (Lambda)              (None, 8, 8, 64)     0           activation_26[0][0]              
__________________________________________________________________________________________________
lambda_72 (Lambda)              (None, 8, 8, 64)     0           activation_26[0][0]              
__________________________________________________________________________________________________
conv2d_86 (Conv2D)              (None, 8, 8, 64)     36864       lambda_65[0][0]                  
__________________________________________________________________________________________________
conv2d_87 (Conv2D)              (None, 8, 8, 64)     36864       lambda_66[0][0]                  
__________________________________________________________________________________________________
conv2d_88 (Conv2D)              (None, 8, 8, 64)     36864       lambda_67[0][0]                  
__________________________________________________________________________________________________
conv2d_89 (Conv2D)              (None, 8, 8, 64)     36864       lambda_68[0][0]                  
__________________________________________________________________________________________________
conv2d_90 (Conv2D)              (None, 8, 8, 64)     36864       lambda_69[0][0]                  
__________________________________________________________________________________________________
conv2d_91 (Conv2D)              (None, 8, 8, 64)     36864       lambda_70[0][0]                  
__________________________________________________________________________________________________
conv2d_92 (Conv2D)              (None, 8, 8, 64)     36864       lambda_71[0][0]                  
__________________________________________________________________________________________________
conv2d_93 (Conv2D)              (None, 8, 8, 64)     36864       lambda_72[0][0]                  
__________________________________________________________________________________________________
concatenate_9 (Concatenate)     (None, 8, 8, 512)    0           conv2d_86[0][0]                  
                                                                 conv2d_87[0][0]                  
                                                                 conv2d_88[0][0]                  
                                                                 conv2d_89[0][0]                  
                                                                 conv2d_90[0][0]                  
                                                                 conv2d_91[0][0]                  
                                                                 conv2d_92[0][0]                  
                                                                 conv2d_93[0][0]                  
__________________________________________________________________________________________________
batch_normalization_30 (BatchNo (None, 8, 8, 512)    2048        concatenate_9[0][0]              
__________________________________________________________________________________________________
activation_27 (Activation)      (None, 8, 8, 512)    0           batch_normalization_30[0][0]     
__________________________________________________________________________________________________
conv2d_94 (Conv2D)              (None, 8, 8, 1024)   524288      activation_27[0][0]              
__________________________________________________________________________________________________
batch_normalization_31 (BatchNo (None, 8, 8, 1024)   4096        conv2d_94[0][0]                  
__________________________________________________________________________________________________
add_9 (Add)                     (None, 8, 8, 1024)   0           activation_25[0][0]              
                                                                 batch_normalization_31[0][0]     
__________________________________________________________________________________________________
activation_28 (Activation)      (None, 8, 8, 1024)   0           add_9[0][0]                      
__________________________________________________________________________________________________
global_average_pooling2d_1 (Glo (None, 1024)         0           activation_28[0][0]              
__________________________________________________________________________________________________
dense_1 (Dense)                 (None, 10)           10240       global_average_pooling2d_1[0][0] 
==================================================================================================
Total params: 5,671,872
Trainable params: 5,646,656
Non-trainable params: 25,216
__________________________________________________________________________________________________
Finished compiling
Building model...
Epoch 1/100
2020-05-14 18:55:06.594358: I tensorflow/stream_executor/platform/default/dso_loader.cc:44] Successfully opened dynamic library libcublas.so.10
…
